actuator_net/app/resources/actuator.pt (torch, 128134 bytes, 9 tensors)

model.0.weight f4 [100, 6]
00000000: 35dc 0740 99b3 8dbe c746 83be a0b2 173e
00000010: 871e 7f3e e79c 193e d7d4 b33e 5ee3 8fbd
00000020: 8144 9dbe ae54 18bd eb18 d23d 91e8 adbd
00000030: 3009 b73f 909d 7a3e 024f 363f e329 22bd
00000040: c9e2 08bc b678 3cbb 4516 74bf 11df 643d
00000050: 4739 31bf 4af1 1f3d 1ce4 1d3b b861 633c
00000060: 1089 92bf 7cbb b6bf 0fd9 c43f a061 bbbd
00000070: 8e41 7bbc e2de 7c3d fce1 c53f b9c7 8c3f
00000080: 839f aa3e f504 8c3e edb7 8a3e c464 0ebd
00000090: 8e02 ec3f 2e2a 103f f450 393f 362f 44bd
000000a0: 54d0 83bc 711d 1b3b d709 973f 100a 80bf
000000b0: 395f 8b3f 9174 fd3b 6a5b 083d 98d4 1ebd
000000c0: 2ce7 ba3d 1482 0ebf 446f a73f 82a0 95bd
000000d0: 4358 69be 5145 1d3e c8f8 533f 04f0 98be
000000e0: 8b73 1f3f 9601 933e 7b31 2dbe 1bf3 60be
000000f0: d21e 7bbf 0cfd 06c0 7c7d 43be 0174 b03c
00000100: f683 4d3d 10e7 ff3c 5754 6e3e 1e89 49be
00000110: 0598 523f 4245 8bbc 9af4 e5bd f3ed 163e
00000120: 1790 5b3d a7df a73f 1899 bc3f 1641 8f3e
00000130: 0a6b 933e 0ad4 b2bc 63a8 4cbf b573 a7bd
00000140: fbc3 c6be 1e3d 3c3d a53a fd3a e8bf ad3c
00000150: 92fe 53be abd6 293f 7b6e c1bc e341 d13e
00000160: b2a2 013c f422 a43d 6eb3 c03e b77e a7bf
00000170: 3db8 ea3f 6539 25be 19ba 08be a5b1 393d
00000180: d698 263f 6003 24bf cd72 993e 64b5 6bbe
00000190: 0f1c 993d c139 343c e937 b43f 5354 2cbf
000001a0: 61b5 f1bb 7809 193c 5492 ef3c 9287 053e
000001b0: ddb5 6dbf 1472 593e d5cd debf 8066 f63c
000001c0: 7173 c33d 89eb 09bd 2f58 053e c5ba 5dbe
000001d0: f235 bfbd 4c29 f2bd f75b bfbc 7cca 0dbe
000001e0: b4b0 1cbf d0b3 e53e b15c 10bf 163f 323d
000001f0: bc78 8fbd d4a6 c43d 5e96 e4be 2829 b6be
00000200: d2f1 66bf 5471 d0bb 3537 88bb 283c 883d
00000210: cd0f 853e b0e9 4cbf 728c 19bf 8ae2 83bd
00000220: dcfc 143e 1c49 4e3e 956f 41be 12cd 6a3f
00000230: 11a6 d3bf 767a 3cbe 1431 99be afaa eabd
00000240: 7e2d b2bf 7a3f 52bf 0c18 0f3f b3dd 243d
00000250: 7f47 3f3d 3245 1d3d 6ca3 85bf 3df1 1340
00000260: a697 60bf ecf3 b83c 56a0 f93c 1d64 803c
00000270: 3b6a 60be 1fdb 333f 2ca5 cc3f 2195 8e3d
00000280: 5df9 1c3d 0898 803d c3df 903e a34a 2abf
00000290: e9eb 8b3f 2ff7 29be da69 e5bd ccfc 173e
000002a0: d863 083d 9f1a 0c3f 747e 2f3b ebfa 793e
000002b0: ac0c e9bd 0172 0b3f a41c 20bf a49b a9bf
000002c0: c66d 773e 41d6 903e 355f b13d 21ff 3fbe
000002d0: 320b 0abe 70e9 803e 98bb eebe c05f c83e
000002e0: 218d 8fbe 7b27 23be a0e0 48bf c21d dd3e
000002f0: da47 ccbf c39e 723d 9172 053d 4987 0fba
00000300: b480 aabf 26ce d03f 3e20 a8bf 1cb1 c8bc
00000310: 16a4 e0bc e16b 1f3d 63fc a63e 8c53 033f
00000320: fe8e 803e 88f4 83be 44b3 6abe 7c64 963c
00000330: 7d4d 3d3f 469e 51bd e3e1 f53d a048 7f3e
00000340: 10cb 25bd cba5 8a3d 8293 70be f9f4 063f
00000350: 5462 403f 0709 8fbd 76a0 99be a3c9 8fbe
00000360: 5a5c afbe 4c89 e13f 243a a9bf 503a 62ba
00000370: 0737 fe3c 4343 943c 43ab babe a051 9abf
00000380: 03d8 af3e db4c 553e 8405 3cbe 7cab b2be
00000390: bb56 f13e 7619 0abf 157d e53f 5339 88bd
000003a0: 9492 7abe ce12 8f3e 28b4 ed3c 0fac 19be
000003b0: 42d1 05bf 810c b3bb 7541 923d 8a2e a23d
000003c0: 3c45 60bf 4c82 473f f898 58bf cd17 bcbe
000003d0: 9a46 50be f4c3 91be ddd2 263f 3d45 3ebd
000003e0: 62ab 303f 959f 08bd c5b8 83bb 5683 21bd
000003f0: edd4 143f d2ef 433f 5440 d8bf b7b0 c5be
2.1228154 -0.27676085 -0.25639936 0.14814234 0.24913989 0.1500126 0.3512332 -0.07025789
-0.30716327 -0.03719013 0.10258659 -0.08491624 1.4299679 0.24474168 0.71214306 -0.039590728
-0.008354851 -0.0028758473 -0.9534648 0.055876795 -0.69228023 0.03904847 0.0024092263 0.013878278
-1.1448078 -1.4275966 1.5378741 -0.0914948 -0.015335454 0.061735995 1.545959 1.099845
0.33324823 0.27347532 0.2709345 -0.034764066 1.843828 0.5631436 0.7238915 -0.047896586
-0.01609055 0.0023668671 1.1799878 -1.0003071 1.0888435 0.007734843 0.033290304 -0.038776964
0.09126124 -0.55667233 1.308083 -0.07306005 -0.22787575 0.15358473 0.82801485 -0.29870617
0.6228568 0.28712147 -0.16913407 -0.21967737 -0.98093903 -2.1091948 -0.19090837 0.02153969
0.050174676 0.031238109 0.2327436 -0.19681212 0.82263213 -0.017000798 -0.11228295 0.14739208
0.05360421 1.3115128 1.473422 0.27979344 0.28792602 -0.021829624 -0.7994444 -0.08176366
-0.38821396 0.045956723 0.0019319846 0.021209672 -0.2070258 0.6634318 -0.023612252 0.4087058
0.007912325 0.08014479 0.37636894 -1.3085545 1.8337475 -0.16135176 -0.1335224 0.04533543
0.6507696 -0.6406765 0.299704 -0.23018414 0.07476055 0.011000098 1.4079562 -0.6731617
-0.0073763584 0.009340636 0.02924458 0.13039997 -0.92855626 0.21234924 -1.7406565 0.030078173
0.09543503 -0.03367189 0.1302192 -0.21653278 -0.09336461 -0.11824283 -0.023359282 -0.13846773
-0.6120713 0.4486375 -0.56391436 0.043517195 -0.0700545 0.096021324 -0.4464597 -0.35578275
-0.9021274 -0.006361166 -0.004156972 0.06652099 0.25988618 -0.8004408 -0.5997993 -0.06439693
0.14549583 0.20145077 -0.18890221 0.9171916 -1.6535054 -0.1840609 -0.29920256 -0.114583366
-1.3920133 -0.8212811 0.5589607 0.04025049 0.046699043 0.038396068 -1.0440497 2.311599
-0.877314 0.022577249 0.030471962 0.015672738 -0.21915524 0.7025623 1.5987906 0.06962038
0.03832375 0.06278998 0.28295717 -0.66520137 1.0931369 -0.165982 -0.1120183 0.14842528
0.033298343 0.5472812 0.0026778253 0.24412124 -0.1137937 0.5447083 -0.625437 -1.3250623
0.24162969 0.28288463 0.086607374 -0.18749668 -0.13480833 0.251781 -0.46627498 0.3913555
-0.2803736 -0.1593303 -0.7846775 0.43186766 -1.5959427 0.05923344 0.032579962 -0.0005475176
-1.3320527 1.6312912 -1.313484 -0.024498515 -0.027421992 0.03892124 0.3261443 0.5129936
0.25109094 -0.257725 -0.22919947 0.018358462 0.7394636 -0.051176332 0.12005975 0.24930048
-0.04047686 0.06769904 -0.2349377 0.5271755 0.75150037 -0.06984144 -0.30005234 -0.28083524
-0.34250146 1.7620025 -1.3220868 -0.0008629905 0.031032098 0.01809848 -0.36458787 -1.205616
0.3434449 0.208301 -0.18361479 -0.34896457 0.47136483 -0.539451 1.7928797 -0.06651559
-0.24469978 0.27944034 0.02901657 -0.15007041 -0.5227243 -0.005464137 0.07141391 0.07919033
-0.87605643 0.7793319 -0.8460841 -0.3673691 -0.20339432 -0.28469813 0.651655 -0.04645275
0.6901151 -0.033355314 -0.004019829 -0.039431892 0.581374 0.7653781 -1.6894631 -0.38611385

model.0.bias f4 [100]
00000000: 08c4 e73e 5da9 3fbf 63e1 253f de61 5f3f
00000010: 4c49 5abe 8e5f f6bd 7d17 87be 811c a5be
00000020: fcec 33bf dd60 4abf 09e5 6fbd 3406 8abf
00000030: 363c 803f 7f17 873f 773c 433f 9c1b cd3d
00000040: aa1d 3cbf 03cd e1bd 86a1 afbe 18bc 3abf
00000050: a646 823f b1f4 4fbf a613 413f 4c7d 013f
00000060: 97d7 b0be fd0f 9cbd 1432 33bf ad43 60bf
00000070: 916f babe bb89 a4bd ef6c b2be eb0f 5ebe
00000080: e4eb 05be 9f07 773f 37bd 4fbf ab4a 02bf
00000090: 8652 11bd b26d 8e3e 96ec 78be da79 9d3f
000000a0: ed0e 9d3e 9eae 973f 06e9 1a3e 147f f13c
000000b0: bbc6 eb3d 1754 a1bf 594f d33b f9f9 3a3d
000000c0: f97c 5a3f 6461 dabe ecab 19be fcd7 d3be
000000d0: 0382 873f bac0 8cbf 18db e83c 1aa2 babd
000000e0: 5c32 733f 80fd 323f 90a6 68be de05 1c3f
000000f0: 3bff fbbe 395d 20bf 8209 883e b9a8 75bd
00000100: 54d3 0bbf af33 f6be 47cf b0be ec2f 43bc
00000110: 69a4 57bf 47ed 03bf b419 97be 2c70 8e3f
00000120: 151d 5abe 85f6 333f 722e a23e e2cb 423f
00000130: fccc 6fbf 88e6 c23d 324f 25be db7d 01bf
00000140: 2878 09bf 264c 93be 7090 453f 46c0 eabe
00000150: fced 4e3f 1b42 8d3e cfc3 59bd 28de 7e3e
00000160: af06 9d3e f065 083c d0ae 0c3e 25ec b23c
00000170: 4b1e 65be 37a2 9bbe 0c52 c0be e79e 10bf
00000180: 5f96 03bf 5370 d9bc 3acd 13be de2d d3bd
0.45266747 -0.748678 0.6479704 0.8725871 -0.21317023 -0.12029944 -0.26385108 -0.3224831
-0.70283484 -0.7905405 -0.058568034 -1.0783143 1.0018375 1.0554045 0.7626414 0.10015032
-0.73482764 -0.11025431 -0.3430292 -0.7294326 1.017781 -0.81232744 0.75420606 0.5058181
-0.34539482 -0.07620237 -0.6999829 -0.87603265 -0.36413243 -0.080340825 -0.34848735 -0.2168576
-0.13078266 0.96496004 -0.81148094 -0.50895184 -0.03547909 0.27818066 -0.24309 1.2302811
0.3067545 1.1850164 0.15127954 0.02947954 0.11512514 -1.2603787 0.006448668 0.04564855
0.85346943 -0.42652428 -0.15006989 -0.4137572 1.0586551 -1.0996315 0.028424785 -0.0911295
0.9499872 0.6991806 -0.22719789 0.6094645 -0.49218163 -0.62642246 0.26569754 -0.05997536
-0.54619336 -0.48086306 -0.3453314 -0.011913281 -0.84235245 -0.5153393 -0.29511797 1.1127982
-0.21300156 0.70298034 0.3167606 0.7609235 -0.93672156 0.095166266 -0.16143492 -0.50582665
-0.5369897 -0.28769034 0.7717352 -0.45849818 0.80831885 0.27589497 -0.053165253 0.24889433
0.30669162 0.008325085 0.1373856 0.021841118 -0.22374837 -0.30397198 -0.37562597 -0.56492466
-0.51401323 -0.026542818 -0.14433756 -0.10311483

model.2.weight f4 [100, 100]
00000000: 1190 55bd 302e 783d f454 1b3e 85e9 ffbd
00000010: 9523 953e 0f42 b33e 2b45 e63e 8052 b5bd
00000020: 2fe5 e73d 198d 2d3b afae 463e 0bca e4bd
00000030: 13ce 853e bbf6 62bd b6b8 2d3e 298a 56be
00000040: 9806 daba 36eb 0fbd aa1b 7d3c d03c adbd
00000050: c996 22be 91ae 51be 649c e43e 25e2 b83e
00000060: 34ec 423d 7b88 063d 8cfb c33c 67f5 1e3d
00000070: 1f85 bb3d 1450 b33d 4b51 ffbb 75c0 0fbe
00000080: 221d 3f3e d27b 76be 69af 273d d455 853e
00000090: 15f0 7c3e 11f4 843d 00a5 033e 126b 183e
000000a0: 9553 ebbc db54 d23d d1e2 98bc ebfe 0abe
000000b0: b675 8fbe f21b 54be 26db 98bd 659c 393d
000000c0: 7f1f 953e 86dc 90bc 19a8 c13d 4a96 043e
000000d0: 7ffe e6bd a2b4 a9bd 7774 00be 3df2 003e
000000e0: 1976 003e 6d87 8dbd 896a 663d a141 b43d
000000f0: ec10 1d3e 9100 363e 62ca f0bb 3ab0 a33e
00000100: 41e3 1ebe b649 85ba 2b06 013e 573a c2be
00000110: 7efe c8bd 60a7 be3d 1e39 263e 4494 0bbd
00000120: 9825 64bd 30b3 823d 2b32 1bbe 8dd8 a6bb
00000130: 16b2 8f3d ff06 4abd a196 e33d 7d9d 34be
00000140: 5a6c b13d 8728 dbbd 2a39 48bc 0319 3abe
00000150: f3b5 86be d84a c93d 172e 523e a9d6 b23d
00000160: 350a 9a3d b414 373e 1291 13bd 4391 c23e
00000170: bd94 8cbe 68da 633d fb52 b83d 16e9 433d
00000180: 447e 42bc 06e1 983e fb90 fb3d 5ee7 c43d
00000190: e6b6 803e 2e3c e23d 8ab6 43be 667f b93e
000001a0: e219 02bf acb4 463e 2836 463e 8b88 6ebd
000001b0: 12f7 debd 9ec4 4f3e e010 9e3c 6269 27be
000001c0: 68d5 81be 3017 0abc 97cd ed3d a6f9 b6be
000001d0: 4c4d 17be 9078 753e 23b7 353e d39f f6bd
000001e0: 0a8e ca3d 9097 ad3d 0a6e 843b a097 073e
000001f0: 8ebb b3be 8b05 0fbd 9a46 f039 25d3 f93b
00000200: 202d 283d aede 08be 7292 32be 00e7 f93e
00000210: 26c8 e9bc 9789 36be 47f6 14bc 610f f23d
00000220: 22f1 ce3d 3429 693d acb3 afbd ab12 283c
00000230: fab6 143e e1c7 b4bd 4711 e03e 50ef ae3d
00000240: 9731 f0be c7d2 74be 268d fe3d 69bb 033e
00000250: 29db 9fbd 9865 233e 6950 a5bd d794 ab3e
00000260: a4cc d03d c1d9 7a3e fb6e 933c 75b4 97bc
00000270: 74fd 413c 9842 79bb c793 87be 2dbf 03be
00000280: a7bd 6c3d 9955 6fbd 4e93 0e3e 38d9 8c3f
00000290: 9b3b fe3e 932d 4cbe f1ca c1bd 0f62 ddbd
000002a0: 1c3f 9ebc 50dc 43bd 69b7 d53d 2384 bdbd
000002b0: 11a5 783e 62c7 ffbd 2576 ac3e 9a03 a3bd
000002c0: 29d7 74be 34f4 4abd 1a29 67be d760 e8bd
000002d0: 12ab babc ffdf 043e 9088 993e b637 dd3e
000002e0: 44bf 81bc db44 e6bb 931f 0b3d 30b7 68be
000002f0: 2220 4c3d 4b46 c8bd 8301 a43d c0ce 91be
00000300: bfdd 883c 7605 0ebf 468b 1fbe 455f b83e
00000310: bc99 56bc 8ac3 a7bd 4c47 bebc 14af 333f
00000320: fc6a 99be dc1c 0dbe c717 6e3e cea9 b43d
00000330: c0ed 1abe 8dd8 7b3e a5f2 c43d 7fd8 b6bc
00000340: 8d2f 11be bcb1 27be 0ec0 debb 83ec 003d
00000350: 3892 de3d f8e7 2ebd 1071 29be 2e7f f1be
00000360: 0a3a 173d 1875 8f3d ffeb 293e 7b08 143e
00000370: ee77 843d d0ed bf3e 8c96 9abe 0525 cb3d
00000380: 2a06 a83d 8c4c 95bd 33ae f0bd 580e 1d3e
00000390: 0d85 373d 0e9b 163e 0b34 e4bd 3fd4 06be
000003a0: 573d a6bd f056 70be 8bb4 a5bc df51 943e
000003b0: 91d0 cabb 1c56 493d 8165 583e da2d 203d
000003c0: 869a 963e d790 ce3d eda7 3abe 109b a23d
000003d0: d59c 28be cfb3 553d 6f8d 1e3d b3b2 e33d
000003e0: 38fd b7be bd7a 013e c0e9 14bd a769 cdbd
000003f0: 509a b53d ef6c 893e 80d4 333e 2b73 f2bd
-0.052139346 0.060590923 0.15169126 -0.12495712 0.2912871 0.35011336 0.44974646 -0.08853626
0.1132301 0.0026481806 0.19402574 -0.11171349 0.26133785 -0.05541108 0.16964993 -0.20951141
-0.0016634045 -0.035136424 0.01544849 -0.08458865 -0.15877832 -0.20476748 0.44650567 0.36110035
0.047588542 0.032845 0.023923658 0.038808253 0.0915625 0.08755508 -0.0077916733 -0.1403826
0.18663457 -0.24070671 0.04093877 0.26042044 0.24700959 0.064918645 0.12855911 0.14884594
-0.028726378 0.10270091 -0.018662842 -0.13573806 -0.28019494 -0.20713785 -0.07463674 0.045315165
0.29125592 -0.017683279 0.0945589 0.12947956 -0.1127901 -0.08286406 -0.12544428 0.12592407
0.1254505 -0.06910596 0.056253944 0.0880158 0.15338486 0.17773654 -0.0073483447 0.31970388
-0.15516378 -0.0010169062 0.12600009 -0.37935135 -0.098141655 0.09309268 0.16232726 -0.034076944
-0.055699915 0.063818336 -0.15155856 -0.005091733 0.07016389 -0.04932308 0.111127146 -0.17638202
0.086632445 -0.10701089 -0.01222066 -0.18173604 -0.2631069 0.098287284 0.20525394 0.087323494
0.07521478 0.17878991 -0.03602702 0.3800145 -0.27457228 0.05562821 0.09000202 0.04782971
-0.011870924 0.2985918 0.12283512 0.09614442 0.2513954 0.110466346 -0.19112602 0.3623001
-0.50820744 0.19404858 0.19356596 -0.058235686 -0.10886969 0.20289847 0.019295156 -0.16348794
-0.2535813 -0.00842838 0.11611479 -0.35737342 -0.1477558 0.23971772 0.17745642 -0.12042203
0.09890373 0.08476174 0.004041438 0.13241434 -0.3510403 -0.034917396 0.0004582897 0.0076240473
0.04105866 -0.13366196 -0.17438677 0.48809052 -0.028537821 -0.17825924 -0.00909192 0.118193395
0.10104586 0.05692406 -0.085791916 0.010258357 0.14522925 -0.088271864 0.43763182 0.08541739
-0.46912834 -0.2390853 0.12429266 0.1286446 -0.07805473 0.15956724 -0.08071978 0.33511993
0.10195282 0.24497129 0.017997256 -0.018518666 0.011840213 -0.0038034078 -0.26479933 -0.12865897
0.057798054 -0.05843124 0.1392338 1.100379 0.4965485 -0.1993926 -0.09462536 -0.10809719
-0.019317202 -0.04781753 0.10435373 -0.09253719 0.24281718 -0.12489201 0.33683887 -0.07959671
-0.23910202 -0.049549296 -0.22574273 -0.11346596 -0.02278665 0.12976073 0.29987 0.43206567
-0.015838273 -0.007027251 0.03396566 -0.2272613 0.04983533 -0.09779032 0.08008101 -0.2847805
0.0167073 -0.5547708 -0.15580472 0.36010185 -0.013098177 -0.08191593 -0.023227356 0.70189023
-0.29964435 -0.1378054 0.23251258 0.0882145 -0.15129757 0.24594326 0.09616593 -0.02232003
-0.14178295 -0.16376394 -0.006797797 0.031475555 0.10867733 -0.04270169 -0.16547036 -0.47167343
0.036920585 0.07004756 0.16593932 0.1445636 0.06468187 0.37486124 -0.30192983 0.0991917
0.08204301 -0.07289991 -0.11751976 0.15337503 0.04480462 0.14707586 -0.11142739 -0.13166903
-0.081171684 -0.23470664 -0.020227691 0.28968713 -0.006189414 0.049154386 0.2113247 0.039106227
0.29414767 0.1008622 -0.18228121 0.07939732 -0.16466077 0.052173432 0.0387091 0.111180685
-0.35935378 0.12644477 -0.036355734 -0.10029917 0.088673234 0.26840922 0.17561531 -0.11838373

model.2.bias f4 [100]
00000000: 7978 6dbe c219 57bd 35e2 373e 5733 b33d
00000010: 40c1 963b ca05 353d bed4 28be de37 75be
00000020: 20fa e6bd e5ce 00bf 2113 1abe 28f4 03bf
00000030: ce8b 0c3e 1dad 1fbf 97f0 03be ddcd 8e3d
00000040: 0d5d 10bd 87cc 8dbd 7346 b43d 4c61 e53e
00000050: 866f 973e 00a7 043f b2ce 2cbd b70c 023e
00000060: 0025 8dbe 033e 623e 6944 4abd ce04 683d
00000070: 0758 41bd 2cbe 6ebe ab6f e33e 35db 8a3c
00000080: 8573 d7be 92b3 073e 378a 59be 186c 82be
00000090: cdd2 97bc f102 823e 25f0 ba3e 1d9b b7bb
000000a0: 4353 21be 8b56 9e3d fdf0 a23d 65cb 013e
000000b0: 1f10 183f 64fa c8bd 16b6 703e b4e3 183f
000000c0: e3f3 1dbe ba47 97be 0a1c 2d3e a038 47bb
000000d0: 44bd e1be 05fa e6be bd53 a83e f2b7 8c3e
000000e0: 0a67 bebd 14c8 8fbe bcfd a2be 6ba7 3fbd
000000f0: 6461 d8be e7f6 c8be bd2c a7be 6ae4 bf3d
00000100: 07d5 b6be b3d7 523e adba 073f cfec ddbe
00000110: a93c 3a3e a336 e53e a796 d93d 373d 663e
00000120: 9fc1 eabd 3e18 4d3d 51b8 243d c71b c0bd
00000130: e384 c63d 5b34 b5be 0181 9dbe 5433 363e
00000140: 560b bc3e 9b20 29bf 1dde 97bd 48cd acbe
00000150: 1679 57be 632a e03e de29 cabe 218d 1dbe
00000160: 902e b5be cd2a ad3c d5a6 70be 6d08 8abe
00000170: 60d2 87be 6510 38bd 9c08 86bd 6fb6 2d3d
00000180: f5ff e63e 082b e63d 1327 473e 8f7d 1d3c
-0.23190488 -0.0525148 0.17957385 0.08750027 0.004600674 0.044194974 -0.16487405 -0.23947093
-0.11278176 -0.50315696 -0.1504636 -0.5154443 0.13725206 -0.62373525 -0.12884746 0.06972859
-0.03524499 -0.06923776 0.088024996 0.44800794 0.29577273 0.5181732 -0.042189308 0.12700163
-0.2756729 0.22093968 -0.049381647 0.056645207 -0.04720309 -0.23314732 0.44421133 0.01695023
-0.42080322 0.13252094 -0.21244131 -0.25473094 -0.018533135 0.2539287 0.3651134 -0.0056032077
-0.15754418 0.077313505 0.07956121 0.12675245 0.593996 -0.09813383 0.2350696 0.5972245
-0.15425067 -0.2954691 0.16905227 -0.0030398741 -0.4408971 -0.45112625 0.32876387 0.2748409
-0.09296997 -0.28082335 -0.3183421 -0.04679052 -0.42261803 -0.39250872 -0.3265132 0.093697384
-0.35709402 0.20590095 0.5301922 -0.43344733 0.18187203 0.44768247 0.10624438 0.22484289
-0.114627115 0.050071947 0.04021484 -0.09380298 0.09693315 -0.35391507 -0.30762485 0.17793018
0.367274 -0.66065377 -0.074154116 -0.33750367 -0.21042284 0.43782339 -0.39485067 -0.15385868
-0.35387087 0.021138573 -0.23501141 -0.26959553 -0.2652769 -0.04493751 -0.06544611 0.04241031
0.45117155 0.11238676 0.194485 0.009612455

model.4.weight f4 [100, 100]
00000000: a865 a6bd 30ed f33e 3b44 2b3e eca7 7dbe
00000010: ad12 aa3e 1fe8 84be b13e 8ab9 599e 053e
00000020: 09fe 613e f6c7 153e 7b57 86bb a31e d43c
00000030: 5555 b4bd 3405 b6bd c277 053e 8dde 5d3c
00000040: d67d 263d 257e 90bd 2a25 9dbd d6df 083e
00000050: e62b 4e3d 2a87 e93d 099c f23d b040 103e
00000060: be33 f33d 498c 28bc 51ba 22bd 89c2 873e
00000070: 4c02 783e 510d ab3d 704d 2cbe 2ef9 713c
00000080: 2580 1bbe 800f afbe 54cf 1d3e 62c8 e5bd
00000090: 016b 493e fb78 233d cd9f e5bd 77a2 14be
000000a0: 7ba6 43be 5949 3cbd 8354 91bd 21c9 8fbc
000000b0: d169 283e c14e e3bd 5490 0fbe 4e1e 43bd
000000c0: 517c 8ebe 3258 15be c0af 463e 020c 663e
000000d0: 2bbf b63d 6165 293e 703b a53c 19e3 acbe
000000e0: c681 843e 4739 4abe d435 64bc 67ab 043c
000000f0: 7fdd 86be dd31 0ebd 98b7 36be f0af 9e3d
00000100: 1fa4 0b3c 68d2 f8bd 9a37 153d 73be 8e3d
00000110: a360 003e 17d3 ecbc 0265 95bd dd44 c23c
00000120: 8fab b63d 690d bcbc 81f3 913d d036 28be
00000130: 5315 673d 9596 063e 668c 81bd 67b5 57be
00000140: 2c7d 2a3e f93e 82bd cf00 393c 4cb7 92be
00000150: 0f73 743d 56fd fb3d 1182 1fbd 11b9 183d
00000160: 85b5 263b f9c0 173d 570b cfbd ed8b 9abe
00000170: 5445 da3d 4d14 77be debf 093e 4ef0 2fbe
00000180: d18b 5dbd f4b8 453e 209a 1f3e 2bc4 23bf
00000190: b1f3 e8bd f6c3 423e f576 f13c 4d29 66be
000001a0: d055 ac3d 16f3 55be 95c1 823c d2cb 253d
000001b0: 3cdd 863d 8fdb 91bd 524f 17be ae6f 84be
000001c0: 3cec d1bd 692f 50bd 00ac 9a3d 46cc 0a3e
000001d0: bc2b 663e de17 04bd de5e d73d 1f13 7f3e
000001e0: 2adf 4b3e 8d66 0a3e 85c7 503e c973 4a3d
000001f0: d80c 363e f9ae eb3c d9a9 9ebb 34a1 473e
00000200: 0b16 dd3d 45eb 803d 0700 bc3c 47cb 543e
00000210: 196f 32be cdff 123e 4566 c1bd 043c 153d
00000220: a1df a23d aabf 423e 0c3a 5d3c 3a07 5e3d
00000230: 367c 07be 1fa6 103d 9728 a6bd 0bc6 0a3e
00000240: 004c 66bb 64ef 02bd 00fb 4dbd 4dad 16bd
00000250: ddb4 2fbe 73b0 23be 3f88 c83d 0637 173e
00000260: cae0 7dbd c002 f93d a906 813e 3b44 4bbe
00000270: 1427 733d 3638 eabe edd8 35be 01cc 25be
00000280: 17a0 90be 8c70 23be 5ec1 b3bc 5c02 5e3e
00000290: 18be b03d 5535 69be 481f 843d ab59 ef3c
000002a0: 9f67 8b3e daa4 2bbc e385 a5bd de20 24be
000002b0: 9e8c 9b3d ac42 84be 7683 8a3c c2fd 16be
000002c0: 5fc5 923d 5bb5 793d 5082 43be 92af 23be
000002d0: 5b1a 383d 4efa a5be 660b e63d a213 1fbe
000002e0: 80ec b3bd a3f2 083d 359a 27be 0066 193d
000002f0: 5921 e93d e206 d5bd 84fa c5bb 1988 8abe
00000300: 27dd 43bc 29c0 56be 7761 293e af7a 4ebe
00000310: 98f4 2b3e 77a2 fc3d e2f0 083d e16c 1fbe
00000320: a4da d43d efaf 8d3d d927 a63d f6f5 ce3d
00000330: a0b9 ca3c d301 293d bc72 95be dd0c 933c
00000340: dbfc b8be 9efc a83d efdc 9d3d 89ad fdbc
00000350: 4ebc 243e 0c6a 11bc b730 b33d deca 983d
00000360: 0953 45bd 554b 6a3d 4c97 1c3e 831f 833d
00000370: 3c3a 82be 3024 303d 4be8 93be fb53 363e
00000380: facc a5bd d4b1 74be 53ba 70bd 5aa0 6c3c
00000390: 636c 6ebd 4079 8e3d eaa1 bd3d b972 7b3e
000003a0: 5ad4 6f3d 3ca4 013f 318d 793e c71a ce3d
000003b0: 41a4 4d3d eb4a 5e3e 11a9 9c3e bc15 593c
000003c0: 93d3 343e cd88 103e 369f 06bd 4604 8f3e
000003d0: d2c4 95bd ee82 a23e 618f 603c 681c d2bd
000003e0: 2b05 0ebe bd49 45bd 7ae9 5a3d 1ff3 3e3e
000003f0: 388e 1dbe 5188 03be 9b83 2ebe 3bde 223d
-0.08124858 0.47641897 0.16725247 -0.24771088 0.33217373 -0.25958344 -0.0002636812 0.13048686
0.22069563 0.1462706 -0.004099784 0.025893515 -0.08805338 -0.08887711 0.13033965 0.01354183
0.04064735 -0.0705531 -0.07673104 0.13366637 0.050334834 0.114027336 0.118461676 0.14087176
0.118751034 -0.010287353 -0.039728466 0.26515606 0.24219626 0.08352149 -0.16826415 0.014768882
-0.15185602 -0.34191513 0.1541112 -0.112198606 0.19669725 0.039910298 -0.1121212 -0.145151
-0.19106476 -0.045968387 -0.070961975 -0.01755196 0.16446616 -0.110990055 -0.140199 -0.047636323
-0.2782922 -0.14584425 0.19402981 0.22465518 0.08923181 0.16542579 0.020169944 -0.33767012
0.2588026 -0.19748412 -0.013928849 0.008097506 -0.26340863 -0.034715522 -0.17843473 0.07748401
0.008523016 -0.12149507 0.03642998 0.06969919 0.12536864 -0.02890925 -0.07294656 0.023714477
0.08919441 -0.022955613 0.07126523 -0.1642716 0.05641682 0.1314338 -0.06325607 -0.21065293
0.16649312 -0.06359667 0.011291697 -0.2865547 0.05968004 0.12304179 -0.0389424 0.037285868
0.0025437784 0.037049267 -0.10109585 -0.3018488 0.106577545 -0.24128838 0.13452098 -0.17181513
-0.054088417 0.19308835 0.15586138 -0.63971204 -0.113746054 0.19020066 0.029475668 -0.22476692
0.08414805 -0.20893511 0.015961448 0.04047758 0.06585166 -0.071219556 -0.14776352 -0.25866455
-0.10250136 -0.050826464 0.07552338 0.13554487 0.22477621 -0.032249324 0.10516141 0.24909638
0.19909349 0.13515683 0.2038861 0.049426828 0.17778337 0.028769957 -0.0048420248 0.19495088
0.1079522 0.06294874 0.022949232 0.20780669 -0.17425193 0.14355393 -0.094433345 0.03643419
0.0795281 0.19018427 0.013502609 0.05420611 -0.13230976 0.035314675 -0.08113211 0.1355211
-0.0035140514 -0.031966582 -0.0502882 -0.036786366 -0.17158838 -0.15985279 0.09791612 0.14767084
-0.061981954 0.12158728 0.25200394 -0.19850247 0.05936344 -0.4574601 -0.17758532 -0.16191103
-0.2824714 -0.15960902 -0.02194279 0.21680588 0.086300075 -0.22774251 0.06451279 0.029217562
0.27227494 -0.010476315 -0.080821775 -0.16028163 0.0759518 -0.25832117 0.016908389 -0.14745238
0.07166552 0.06096397 -0.19092679 -0.15984944 0.04494701 -0.3241753 0.11232643 -0.15534833
-0.08785343 0.03343452 -0.16367419 0.03745079 0.11383314 -0.104017034 -0.0060418267 -0.2705696
-0.011954582 -0.20971741 0.16541086 -0.20163988 0.16792524 0.12335675 0.03343285 -0.15568878
0.10393265 0.06918322 0.08113069 0.10105507 0.024746716 0.041261505 -0.29189098 0.01795047
-0.36130413 0.08251308 0.07708155 -0.030966537 0.16087458 -0.008875381 0.08749526 0.07460569
-0.04817489 0.05720075 0.1529209 0.06402495 -0.25435054 0.04300326 -0.28888163 0.17805474
-0.08095737 -0.23895961 -0.058771443 0.014442528 -0.058208834 0.0695672 0.09259398 0.24555482
0.058552124 0.50641227 0.24370266 0.10063701 0.050205473 0.21708266 0.30597737 0.013249811
0.17658834 0.14114685 -0.03286668 0.27932948 -0.07312931 0.31740516 0.013706059 -0.10259324
-0.13869159 -0.048166025 0.053445317 0.18647431 -0.15386283 -0.1284497 -0.17042391 0.039762717

model.4.bias f4 [100]
00000000: eda0 b4bb cfc1 343e 3872 24bd e13f f7be
00000010: ad04 2cbe a605 69be d8db 053f 956d fcbe
00000020: 797e e13e 156a d23e 30e6 dc3e facf 00be
00000030: bedb 053d 9563 873d 0b7c cb3e ae0d a9be
00000040: 1ef6 edbe 73d3 1c3e c4cf ec3e 7fcb ab3c
00000050: ee48 f43e a833 6abd 41dd dabe aa8b 0fbe
00000060: 0928 9f3e 1aff 2f3e aff2 12be 3db9 e03c
00000070: 4056 68bd 15bf 1dbd b12b 9cbd 52a5 0fbe
00000080: 8518 59bd b357 033e 0d2a 0ebd d711 033e
00000090: 4e57 d23e 3ea3 72bc 8ca7 3d3e 6791 c73d
000000a0: 8050 ddbd b77a 893c c20a 3bbe 4c46 04bf
000000b0: 466b a6bd d344 033e 7252 013f 3a1e 6abe
000000c0: b03a b1ba efa1 31bd 27b1 1e3d 5cee a4be
000000d0: d176 8a3e 9e53 04bf 1def 5ebe e2ed 02bd
000000e0: c13d 67bd 2c8f 1c3e c1ba 05be 2b30 053f
000000f0: 19ee 193d 9fb2 b7be dc1d a1bc 86ad 4f3e
00000100: f5dd 353e efb9 0c3e 967a 8bbe 37d1 893e
00000110: 2ff2 cb3d 54dc c9bd 08b1 e5bd e8c2 083e
00000120: 238a 7b3e e3e6 febd 4ecf b53e 6bc1 01bf
00000130: 4fb7 cd3e 5e51 85be 1eaf 553e c67d cabd
00000140: b46b e53c c93d 00bf 0c69 293e b828 063e
00000150: 74b4 ca3d 6529 7bbd dcda cd3c 8969 e53e
00000160: b3d6 3d3e eee5 babd 83f8 e8be 3539 acbe
00000170: 7c65 ec3e ec2b d63e de0f 9cbe 1d40 a9be
00000180: a677 edbc 4d80 253e 5c81 d23e 0e8f 5a3e
-0.005512348 0.17652057 -0.04014799 -0.48290923 -0.16798659 -0.22756061 0.5228858 -0.49302354
0.44041803 0.4109656 0.4314437 -0.12579337 0.032680266 0.06610791 0.39743075 -0.3301825
-0.46476835 0.15315036 0.46252263 0.020971058 0.4771189 -0.05717817 -0.42746928 -0.14018121
0.31085232 0.17187157 -0.14350389 0.027432078 -0.05672288 -0.03851231 -0.07625521 -0.14027908
-0.0530019 0.12826423 -0.03470807 0.12799774 0.41082233 -0.014809428 0.18520945 0.0974453
-0.1080637 0.016782148 -0.18265823 -0.51669765 -0.081259295 0.12819223 0.50516427 -0.22863093
-0.0013521519 -0.043367323 0.038743164 -0.32213104 0.27043775 -0.5169009 -0.21770902 -0.031965144
-0.056455377 0.1528899 -0.13059522 0.52026623 0.037580583 -0.35878465 -0.019667558 0.20281038
0.17760451 0.13742803 -0.27241963 0.2691743 0.09958302 -0.098564774 -0.11215407 0.13355601
0.24564414 -0.12446382 0.35509723 -0.5068576 0.40178916 -0.2603864 0.20867583 -0.09887271
0.028005458 -0.50094277 0.16543978 0.1310147 0.098977 -0.061318774 0.025128774 0.4480708
0.18538933 -0.09125887 -0.455021 -0.33637396 0.46171176 0.41830385 -0.30480856 -0.33056727
-0.028987717 0.16162224 0.41114318 0.21343634

model.6.weight f4 [100, 100]
00000000: 29ce f7bb b6ef 70be b228 4e3e 43cd 2b3e
00000010: f247 68be a811 033e 09f6 50bd 59e5 083d
00000020: 42ad 99bd ec94 fa3d 3a06 55be 1b9a f3bd
00000030: b93c 5ebe 6008 ddbe f262 8e3d 4d8c 1e3e
00000040: 170d 51bc 3861 063e 9d77 283e c605 e03d
00000050: 4919 db3c 39fc be3c a4a8 383e ec1c d9bc
00000060: 5d13 7bbd c088 fdbd 02f9 693d 6e02 6dbe
00000070: e4ad a3be 50f0 6d3e 78cf 42bd 104b 023e
00000080: 7f97 5bbd 7b4b 763e 4614 5cbd 7907 0d3e
00000090: d17d 2cbd 742d 1cbc 761d dcbd 04ae 78be
000000a0: 9c90 bbbc 43cb f2bd 6373 403d fe28 da3d
000000b0: c01a a2bc 1054 ce3d 9e5a 8d3c 151f 8b3c
000000c0: 3f8b b3bc 0a82 843e dd1f a83e c673 923c
000000d0: df8a 34bb 70da e63c e14c ef3c e72e e23c
000000e0: 4a39 aa3c 45e6 5d3e 1d09 b6bd 27b5 39be
000000f0: 6568 9abd 2500 993d 2d5e e2bd abab 9d3d
00000100: 904c 0c3e d358 1b3b 79a5 503e c282 44bb
00000110: 3bbf 443d e43c a93c a1ed a7be 474f 9cbe
00000120: 751c a3bd cbd3 5a3e cb83 f83d 0ca1 9e3d
00000130: b4bf 8d3d f3b6 a4bd fce7 2cbe 3f8e 49bd
00000140: ae12 d7bd 3eca 633d 7c8e 8c3e d73c 563e
00000150: c6fd 133d 7798 63be 7bbf b2be a2eb 353c
00000160: fd45 c53c 9eb4 35be af7e e23d a1a5 563d
00000170: 114d 11be 459c 033e eeab 073d bd34 22bc
00000180: f008 23be 7261 153e 74d6 32bd 50e3 323e
00000190: 1f22 933d 48a5 023d 805d 84be 998f b33d
000001a0: 9b0f 103e b142 683d 8552 18be f94e 733e
000001b0: e6d4 12be 19fc b8be 7f06 5bbe 4da1 bd3e
000001c0: a1f7 9cbd a866 533e 2d72 3dbe 5c8b 0abd
000001d0: b37a 993e 1c4d 64be 7cb3 8cbe b33a b7bd
000001e0: c23f 9dbe e279 8c3c bc86 2b3d cc33 593e
000001f0: d974 49be fef4 86bd 3703 e43d c1ee 09bd
00000200: 93b5 b53d a5f3 00be 32e3 b53d 7a8e 033e
00000210: 79be 023e e363 58bd 8014 68be 6655 bfbd
00000220: f0b3 a3be fca0 4d3e 2cba 073b d398 d0bb
00000230: bd19 a83e 60e8 fd3d 8d2e b63c 56cb c23d
00000240: c05f 1d3e 68ca 10be 2917 aabe 1383 203e
00000250: 14c1 8f3e 422e 74bd 604d 41be 36e8 c73d
00000260: b023 83be e66d 883c eec3 aa3d f16d 693e
00000270: 6f11 223d 3f67 49be 139d 64be 4541 56be
00000280: 8bad 3c3d 8628 2c3d 6f98 f6bd 62a6 eabe
00000290: 9b64 4cbe 0ec5 acbe b5e8 463d f38f 2cbe
000002a0: d466 01be 46c0 22bd e984 5d3e 62c9 07bd
000002b0: 0c64 6ebd 289b 8bbc 2e4e f2be a676 4f3e
000002c0: 38bd 0ebe 99a6 ad3e 94c0 afbc 2c82 3f3e
000002d0: 9b63 633d 7221 f43d c8ab 27be 3a27 b5bd
000002e0: 3ddd b1be 84dd 323d b884 3d3d a406 99be
000002f0: b0df ba3d 6fba b03d d4c9 4c3e 8a61 7f3c
00000300: 11a9 4fbe 3832 a9be ebfe 573e 9668 853e
00000310: 0f9d 3bbd b8c4 f2be 96ae 52bd 8344 75be
00000320: d607 883e 91f6 f83d 93fd 973d 0ae3 28be
00000330: e23f 3d3e f8b6 48be dcfb 4d3e 0023 bbbd
00000340: fc95 d2bc eb8e b9bd 5165 e43d 41c0 373e
00000350: 3570 513d 12f8 933e e93a 1cbe 9d97 16be
00000360: a26d 203d c50e 57be 5e98 acbd 74b9 25be
00000370: b17b 53bc efb6 d73d bf03 7dbd 7794 c63c
00000380: 21d6 74bc 6b01 043e b672 ccbc 857b 39bc
00000390: ae99 c63d d487 7dbe 6fc3 0ebd c19c 7cbd
000003a0: c638 493e cee3 ab3c f010 9d3e f7f4 653d
000003b0: 934e 8dbd 5ecd 71bd 18e8 db3d 1960 313c
000003c0: 1866 2fbe c621 563e a4ab 58bd 783c 31bd
000003d0: 41d8 3ebe c159 cabd 1ea5 57be cbb7 16bd
000003e0: c18f 18be 8553 0cbe 6f3b babe 5d17 8a3c
000003f0: ac78 9ebd 5c3d f0bb aaa2 1fbe e53e 20be
-0.007562418 -0.23528942 0.20132712 0.1677752 -0.22683695 0.12799704 -0.051015887 0.033421848
-0.075037494 0.12235436 -0.20803156 -0.11894628 -0.21702851 -0.43170452 0.06952466 0.15483208
-0.0127594685 0.13123024 0.16451879 0.10938601 0.026745455 0.023313629 0.18033081 -0.026503049
-0.061297763 -0.123795986 0.057122238 -0.23145458 -0.31968606 0.23236203 -0.04756114 0.12723947
-0.053611275 0.24052231 -0.05373027 0.13772382 -0.042112175 -0.009532321 -0.10747807 -0.24285132
-0.022896104 -0.11855175 0.04698504 0.1065235 -0.019788146 0.100746274 0.017255124 0.016982595
-0.021916984 0.25880462 0.3283681 0.01787747 -0.0027548594 0.028180331 0.029211463 0.027610255
0.02077927 0.21669872 -0.08888457 -0.1813551 -0.07539443 0.07470731 -0.11053119 0.07698759
0.13701081 0.0023704066 0.20375623 -0.0029985164 0.048033934 0.020658918 -0.32798484 -0.30529234
-0.07964412 0.21369855 0.121345125 0.07745561 0.0692133 -0.08042707 -0.1688537 -0.049207922
-0.1050161 0.055612795 0.27452457 0.20921646 0.03613069 -0.2222613 -0.34911713 0.0111035425
0.024081225 -0.17744681 0.11059319 0.05240405 -0.14189555 0.12852581 0.03312295 -0.009900269
-0.15921378 0.14587954 -0.04366155 0.17469525 0.071842425 0.031895906 -0.25852585 0.087676235
0.14068453 0.056704227 -0.14875229 0.23760594 -0.14339027 -0.36129835 -0.21389197 0.37037125
-0.07664419 0.20644629 -0.18500586 -0.03382431 0.29976425 -0.2229504 -0.27480686 -0.08946743
-0.30712706 0.017147962 0.04187654 0.21211165 -0.1967348 -0.06589697 0.11133426 -0.03367496
0.08872523 -0.12592943 0.08881225 0.12847319 0.12767972 -0.052829634 -0.2266407 -0.0934246
-0.3197322 0.20080942 0.0020710332 -0.0063658743 0.32832137 0.12397838 0.022238994 0.095114395
0.15368557 -0.14139712 -0.33220795 0.15675001 0.28076994 -0.059614427 -0.18877172 0.097610876
-0.25613165 0.016653966 0.08338152 0.22795846 0.039567407 -0.19668292 -0.22325544 -0.20923336
0.04606394 0.042030834 -0.12040793 -0.45830065 -0.19960253 -0.3374409 0.04856177 -0.16851787
-0.12636882 -0.039734147 0.21632732 -0.033151038 -0.05820088 -0.017041758 -0.4732527 0.20260105
-0.13939369 0.33916166 -0.021454133 0.18702 0.055514913 0.11920442 -0.16374123 -0.088453725
-0.34739104 0.043668285 0.04626915 -0.2988788 0.09124696 0.086293094 0.19998866 0.01558722
-0.20279337 -0.33046126 0.21093337 0.26056355 -0.04580408 -0.4741571 -0.05143603 -0.23951916
0.26568478 0.12156404 0.07421412 -0.16492859 0.184814 -0.19601047 0.20115608 -0.09137535
-0.025706284 -0.090604626 0.11152137 0.17944433 0.0511324 0.289002 -0.15256847 -0.14706273
0.039167054 -0.21001728 -0.08427499 -0.16184026 -0.012907908 0.10532939 -0.06177115 0.024240715
-0.01494363 0.12891166 -0.024957042 -0.011320953 0.09697281 -0.24758846 -0.03485435 -0.06167293
0.19650564 0.02098265 0.30676985 0.05614182 -0.068997525 -0.059033744 0.10737628 0.010826134
-0.1712879 0.20911321 -0.052898064 -0.043270558 -0.18637182 -0.098804004 -0.21059081 -0.036796372
-0.14898588 -0.13703735 -0.3637347 0.016856844 -0.0773786 -0.0073315334 -0.15589395 -0.15648992

model.6.bias f4 [100]
00000000: 1f86 303c 9509 6abe 4ddd e63c 7fd6 62be
00000010: 0513 d53c e6cc bbbe 6ff4 9fbe 8e2c 433e
00000020: ee15 87be 2645 00bd b4b7 14be e027 093e
00000030: 9f75 893e afd6 97be a778 04bf 4c53 4a3e
00000040: db77 a93e 9ee2 a8be d5ec 393e c734 50be
00000050: bcc1 f13d 4252 903e 7506 bdbe 1943 a4be
00000060: 74f5 b2be c9d0 d6be dba6 8c3e 8ec2 45bd
00000070: 5386 b6be b731 9d3e ce20 e93d f18f 9abe
00000080: da88 5cbe a11c 473e bbda 2dbd b5e7 123f
00000090: 134b cabe 015d 12bf 4961 00be 1f7d 4b3e
000000a0: 5c0f 8abd 7538 16bd 17e2 e3be d6f5 da3c
000000b0: d4eb f03e 852a 95be 359e e73d 259e e2bd
000000c0: 521a a7be 5edb 983e 099b c4be f9d3 bf3e
000000d0: 42c6 f2bc 0b35 2f3e 67dc abbe d739 8fbe
000000e0: 175c c9be e388 d43d 56c1 e7bb da21 6e3d
000000f0: 079e 53bd 766f 0a3f 2116 cebe bdec b5be
00000100: caa1 2f3e 9ffa 653e de51 c0bb 073b 8ebd
00000110: 7e55 a6be 3a53 0d3d 06b9 3bbe f481 c8be
00000120: 99cd 923d d726 4c3e 37b0 aabe 6839 833e
00000130: 2955 b93e a180 913e 949d 823d 065e c33e
00000140: 092d dfbd 6074 033f 0edb 8abe 9c6b 9fbe
00000150: efe4 a1be bfbe 1ebd 7c8e 7abc 5c18 7e3e
00000160: a200 09bf d395 8abe 9827 f83e 5a59 cd3e
00000170: b1c9 573d 2671 f13b 3006 c6bc 3faf c7bd
00000180: 4205 03be 695e 2dbd ef0f 003e e78e b13d
0.010774164 -0.22855218 0.028181696 -0.22152136 0.026010046 -0.36679763 -0.31241176 0.19059965
-0.2638392 -0.031315945 -0.14523202 0.13394117 0.2684755 -0.29655978 -0.517466 0.19758338
0.33099255 -0.32985395 0.1815675 -0.20332633 0.1180453 0.28187758 -0.3691899 -0.3208244
-0.3495289 -0.41956165 0.2747105 -0.048281245 -0.35649356 0.30701992 0.1138321 -0.30187944
-0.2153658 0.19444515 -0.042444926 0.57384807 -0.39510402 -0.5717316 -0.12537111 0.19871949
-0.06741211 -0.036674935 -0.4450843 0.026728552 0.47054923 -0.29134002 0.113094725 -0.1106532
-0.32637268 0.29854864 -0.38399532 0.3746641 -0.029635552 0.17110078 -0.3356659 -0.27973816
-0.3932807 0.103776716 -0.007072608 0.058137752 -0.05166438 0.54076326 -0.40251258 -0.3553218
0.17151561 0.22458886 -0.0058691343 -0.06944852 -0.324871 0.0345032 -0.183323 -0.39161646
0.07168121 0.19936691 -0.33337566 0.25629735 0.36197785 0.2841845 0.06377712 0.38157672
-0.10897262 0.5134945 -0.2712025 -0.31136787 -0.31619975 -0.03875613 -0.01529276 0.2481398
-0.5351659 -0.27067432 0.48467708 0.40107232 0.052682582 0.0073682247 -0.024172872 -0.097502224
-0.12794974 -0.042326365 0.12506078 0.086698346

model.8.weight f4 [1, 100]
00000000: b2c8 673e 71d6 9bbe 5b7e 1fbe f518 763e
00000010: c1d5 7bbe f770 a83e 9039 bcbe 5176 60be
00000020: 6f73 ba3e 9f39 92be 0458 4bbe 22ba a5be
00000030: e672 a03e 6641 88be 27b6 9ebe bb8b 943e
00000040: 0c06 c1be 7240 c63e 4bed 833e 281e b43e
00000050: bc1c 52be 8eab b1be 9a3d b23e 9bf4 d33e
00000060: d063 9d3e c0d3 b7be 947f b5be 9a59 65be
00000070: da57 b7be 6cf0 c43e de44 6cbe d699 963e
00000080: ac49 a13e a5be 92be 3420 85be 1be0 8d3e
00000090: 0abe bd3e ff7c b2be c048 9cbe ec64 b83e
000000a0: 2a01 87be be86 7e3e 3e7a a8be fd0c 553e
000000b0: e005 a03e 88cb 93be 2a24 7e3e 9d4b 133e
000000c0: 49cb c53e b9c8 953e c22b a33e 5e81 a1be
000000d0: 1112 443e bb57 c3be 57fd a03e 3e96 bb3e
000000e0: e23e ad3e fd81 51be 1e08 3cbe a94c 613e
000000f0: 0751 31be a757 b43e d5f1 b43e bcec a2be
00000100: 6f73 b8be 1808 a13e a79b 6abe 7713 6dbe
00000110: df53 ac3e c562 563e 2060 553e a7d1 b33e
00000120: fdb4 4fbe 1f17 9e3e 980a c03e 9289 bb3e
00000130: 623d abbe b868 91be ab8e 81be e2ea 98be
00000140: 83be 3f3e bceb a43e a833 9cbe 450d a03e
00000150: 79c0 b6be 8553 5bbe 7297 073e 15fb 82be
00000160: 9bf2 9fbe add4 b93e 3d1b a33e 24ce 9f3e
00000170: d2c4 46be 8312 873e bdc2 45be 72a5 81be
00000180: 1bd6 323e 3415 5fbe 0bdf 26be 5e14 843e
0.22635153 -0.30437043 -0.15575545 0.24032958 -0.2459326 0.32898685 -0.36762667 -0.21920134
0.36416194 -0.28559586 -0.19857794 -0.3236857 0.3133766 -0.26612395 -0.30998346 0.29012856
-0.37699926 0.38721043 0.25766978 0.35179257 -0.20518774 -0.34701198 0.34812623 0.41397557
0.30740213 -0.3590374 -0.35448897 -0.22397462 -0.35809213 0.38464677 -0.23073146 0.29414243
0.3150152 -0.28661075 -0.26001132 0.2771004 0.3705905 -0.3486099 -0.30524254 0.36014497
-0.26368076 0.24856088 -0.32905763 0.20805736 0.31254482 -0.2886622 0.24818483 0.14384313
0.38631657 0.29254702 0.31869322 -0.31544012 0.19147517 -0.3815287 0.31443283 0.36638063
0.33837038 -0.20459743 -0.18362471 0.220019 -0.17316066 0.35223123 0.35340753 -0.3182124
-0.3602557 0.31451488 -0.22910939 -0.23151956 0.3365774 0.20936115 0.2083745 0.3512089
-0.20283885 0.30877015 0.37508082 0.36628395 -0.3344527 -0.28400207 -0.2530416 -0.298667
0.18725018 0.322111 -0.3050816 0.31260124 -0.3569372 -0.21418579 0.13241366 -0.25582185
-0.3123978 0.3629507 0.3185672 0.3121196 -0.19411018 0.2638131 -0.19312568 -0.25321537
0.17464487 -0.21785432 -0.16296022 0.2579679
